我的项目/分钟级预测研究/models/best_model.pth (torch, 437749 bytes, 12 tensors)

trend_stream.mlp.0.weight f4 [128, 17]
000000 78 7e 34 3d 10 f0 08 3e 57 05 8d be 87 7a f9 3d
       0.044065922 0.13372827 -0.27543136 0.12181573
000010 af 4a 34 be cd cb 6c be 16 c8 ca 3d 44 86 51 be
       -0.17606615 -0.23124619 0.099014446 -0.20461375
000020 62 1b 2a 3e d9 a5 92 3d 94 85 b1 bd 66 20 22 3e
       0.16612008 0.07160539 -0.08668056 0.15832672
000030 17 5a 00 3e fc 2b a6 3d e4 bb cc 3d b2 0c 7b b9
       0.12534367 0.08113858 0.09996775 -0.00023941955
000040 92 35 c8 bd d8 a4 12 3e 10 08 68 bd c3 91 51 bc
       -0.09775843 0.14320695 -0.056648314 -0.0127911
000050 dc f2 5b be 3c a5 c0 3d 77 1e a5 bd e6 b6 2e bd
       -0.21479362 0.09406516 -0.08062451 -0.042654894
000060 98 b3 ee 3d ef 3f c4 bd e2 68 f7 3d 18 ec e9 3d
       0.116553485 -0.09582507 0.12080552 0.114219844
000070 ed ac 70 be eb 66 a2 3d ef d9 ea 3c 24 12 47 3e
       -0.23503466 0.07929786 0.028668372 0.19440514
000080 65 31 3e bd 24 89 3f 3d 5b 67 e6 3d 68 8d 94 bc
       -0.046433825 0.046761647 0.11250182 -0.018133834
000090 58 75 6a be cc 47 bc 3d c7 2c 76 3c fc 58 ce 3b
       -0.22896326 0.09193382 0.015025324 0.006297229
0000a0 a7 bb 58 3e 33 36 bb 3d 61 5b c5 bd a8 59 74 3e
       0.21165334 0.09141197 -0.0963657 0.23862326
0000b0 98 68 56 3e c5 c6 ad 3d 0d c4 c1 3d 51 e9 3d be
       0.20938337 0.08485178 0.09461222 -0.18546034
0000c0 8a d7 c1 3d 76 3f 2b 3d 64 80 86 bd 1c ad 72 3e
       0.09464939 0.041808568 -0.06567457 0.23698848
0000d0 63 ba 37 be 31 c7 2f be d4 c8 31 be d1 4e 6b bd
       -0.17942195 -0.17165829 -0.17361766 -0.057448212
0000e0 bc b4 a5 bd c1 8d d6 3d 6d 84 f9 bd 00 85 b9 bd
       -0.08091113 0.10476256 -0.12183461 -0.09058571
0000f0 07 d6 88 3c 5b 82 77 3e f5 8b 7a 3c 2d 97 e2 3d
       0.016703619 0.2417082 0.015292157 0.11063991
000100 01 01 04 bd 47 51 0f be 69 38 85 3d 43 bd 0c bd
       -0.03222752 -0.13995849 0.065049 -0.03436018
000110 39 d4 22 3e a6 24 17 bd 7b 97 1a 3e 49 6e e7 3c
       0.15901269 -0.036900185 0.15096848 0.02825083
000120 b4 da f2 3d 39 7d 3e bd 3f 02 9b 3c 7d ef 05 3e
       0.118581206 -0.04650614 0.01892197 0.13079639
000130 12 ca e6 3d 2e cd 2c 3e 99 01 c4 3d c5 ee 70 3d
       0.112690106 0.16875145 0.09570617 0.05882146
000140 06 bc 4d be 2f 64 83 3d 1c 5c 0c be 37 68 95 3d
       -0.20091256 0.06415593 -0.13707012 0.07295268
000150 4d 86 ee bd a8 53 05 be 80 c6 38 be 76 54 31 be
       -0.116467096 -0.13020194 -0.18044472 -0.17317376
000160 06 8d ef 3d 84 35 12 3e 7b a3 49 3e a4 21 e5 bd
       0.1169682 0.14278227 0.19691269 -0.11188057
000170 0d 86 3d 3e 94 5d 2c bd 60 2a 24 3e 62 2e 47 be
       0.18508168 -0.04208143 0.1603179 -0.19451287
000180 84 74 4b 3d ca 4b 3f be 91 e6 2b be 71 8b d0 bd
       0.049671665 -0.18681255 -0.16787173 -0.10182846
000190 99 ef bf 3d 14 14 3d 3e 6a a6 b6 bd 25 47 81 bd
       0.093718715 0.1846469 -0.0891846 -0.06312398
0001a0 dd fa b2 bd 47 b4 37 3e 69 65 5c 3e 5e 09 ac bd
       -0.087392546 0.17939864 0.2152306 -0.08400224
0001b0 60 49 13 3d 40 41 67 be 70 d6 1c 3c 10 5c b5 3d
       0.035958648 -0.22583485 0.00957261 0.0885545
0001c0 e1 51 cf bd 83 78 df bd 10 99 02 3e d3 3b 66 3e
       -0.10123039 -0.10911658 0.12753701 0.22483759
0001d0 a8 0a 19 3e 5b 3c 4d be bd f6 21 be b2 7f f2 bc
       0.14945471 -0.20042555 -0.1581678 -0.029601905
0001e0 4f 68 b5 3c 51 01 e8 bd cc ff 2b be 1e 6c 8c 3d
       0.022144465 -0.11328376 -0.16796798 0.06856559
0001f0 fd 14 8e 3d 2b 32 f2 3d ba 62 5f be 89 52 8d be
       0.06937597 0.11825975 -0.21815005 -0.27602032
000200 b5 c2 95 bd b8 7e 30 be 0a bf e5 bd 86 e6 ee 3d
       -0.07312528 -0.1723584 -0.112180784 0.116650626
000210 e7 6b aa bd 0e b9 04 bd d6 f2 a7 bd c8 28 05 be
       -0.08321362 -0.032403044 -0.08200614 -0.13003838
000220 47 8b 7b 3d ae 67 3a be 0a ee b2 bc 51 a2 82 bd
       0.061412122 -0.18203613 -0.021842021 -0.06378616
000230 32 88 60 be fa 28 35 3e 33 07 88 be c5 a4 af 3d
       -0.21926954 0.17691413 -0.26567993 0.08576349
000240 25 80 01 be 0e e6 9a bd 1d 6b 31 be ec b7 3b 3e
       -0.1264654 -0.07563411 -0.17326017 0.1833188
000250 b5 1a 42 3e b4 91 23 3e 17 1c 80 3d ef 03 4b 3e
       0.189555 0.1597355 0.06255358 0.1982572
000260 cd c5 8d bd b4 36 21 3e a4 32 e9 bd 20 67 00 bd
       -0.06922493 0.15743524 -0.11386612 -0.031348348
000270 f8 56 f4 3d fa fc 9f bc 03 ea 08 be 86 e7 aa bd
       0.119306505 -0.019529808 -0.13370518 -0.08344941
000280 33 0d fc bd a0 7f df 3d 83 26 02 3e ba 66 7e bd
       -0.12307205 0.109130144 0.12710004 -0.062109686
000290 61 cc 3c be db 60 31 3e 18 7c 9e bd 12 fd 09 bd
       -0.1843734 0.17322104 -0.07738513 -0.033688612
0002a0 ee a0 a4 bc 3f cd 0f 3e 6e fc 1e bd a5 67 14 bd
       -0.020096269 0.14043139 -0.038814954 -0.036231656
0002b0 ab a1 31 3b e1 78 fa 3d c0 09 4a be b9 c9 07 3d
       0.0027104418 0.12230087 -0.19730282 0.033151362
0002c0 b9 88 4f be 21 60 fb bc a0 38 81 3d 92 ff 08 be
       -0.20267 -0.030685486 0.063096285 -0.13378742
0002d0 8e d9 12 be 4d e5 9f bc bb 59 62 3e fb e8 42 be
       -0.14340803 -0.019518519 0.22104542 -0.19034187
0002e0 3b 47 18 be d9 62 c7 3d 0d 60 06 3e 1c 5c 29 3e
       -0.14870922 0.097356506 0.13122578 0.16539043
0002f0 01 1a 14 be cf 60 df bd b3 d6 be 3d ad 43 f4 3c
       -0.14463045 -0.10907137 0.093182944 0.029817427
000300 a9 26 f3 bd 88 99 8c bd 18 cc 1b bd 7b 2c ae 3d
       -0.11872608 -0.06865221 -0.038036436 0.08504578
000310 22 da 54 be 83 e1 14 3e 50 87 b8 3d f4 49 fd bb
       -0.20786336 0.14539151 0.09010184 -0.007729763
000320 a8 31 80 3d d9 db 29 be 7e 74 9c bd 56 ec 48 be
       0.06259471 -0.16587771 -0.076394066 -0.19621405
000330 4e a9 8b bd 41 57 da 3d 3a be f3 bd ce 5a 33 be
       -0.06819402 0.106611736 -0.11901517 -0.17515108
000340 06 67 bb bd 94 d3 a9 3c fe 90 2d 3e 91 3f 6f be
       -0.091505095 0.020730771 0.16949841 -0.23364092
000350 c0 fc 12 3d 86 74 99 bd 1f f2 be bd 9d 68 13 3c
       0.035885572 -0.07492928 -0.09323525 0.00899711
000360 48 e5 3f 3c fd eb b7 3d 40 53 39 3e 97 6f 8f 3d
       0.01171238 0.08980558 0.18098164 0.07003706
000370 09 47 b6 bd c6 2c 0b be 0e 29 0d 3d 97 df 55 3d
       -0.08900268 -0.13591298 0.03446298 0.052215185
000380 4a 48 ef bd 6f b8 14 be 1c 32 d6 bd f5 37 62 3e
       -0.1168371 -0.14523481 -0.10458776 0.22091658
000390 b9 e5 3d bd e6 00 4a bd 58 6b c2 3d 4c bb f4 bd
       -0.04636166 -0.049317263 0.094931304 -0.119497865
0003a0 62 79 fd bd c9 b7 91 bd 85 28 6f 3d 6f d2 02 3d
       -0.123766676 -0.07115132 0.05838825 0.031938966
0003b0 49 aa 72 3d be 82 19 bd e1 c2 5d 3e c2 77 43 3e
       0.059244428 -0.0374782 0.21656372 0.19088653
0003c0 a4 7c 3d be 14 35 b2 3d 98 c4 bd 3c 8d a0 33 be
       -0.18504578 0.0870153 0.023165032 -0.17541714
0003d0 84 fe ad bd 17 4f 36 be 07 2d 01 be 6d c8 1e 3d
       -0.08495811 -0.17803608 -0.12614833 0.03876536
0003e0 b1 29 4a 3e b6 c7 8b bb 52 8e d0 ba 44 34 b2 3d
       0.19742467 -0.0042657508 -0.0015911555 0.08701375
0003f0 f3 15 8d bd 97 87 5a bc 8a d0 0e be f6 de a9 bd
       -0.06888952 -0.013337991 -0.13946739 -0.082944795

trend_stream.mlp.0.bias f4 [128]
000000 89 9e 2b 3e f0 44 a3 3d eb 9c 35 be 26 e7 39 3d
       0.16759695 0.07972133 -0.1773564 0.045386456
000010 83 b2 cb 3d 2c c5 66 bd 18 cc 35 bd 53 1a a7 bd
       0.09946158 -0.05634038 -0.044384092 -0.08159318
000020 fe ec 11 bd ca 01 24 be 21 cb 87 3c 28 fe 70 bd
       -0.035626404 -0.16016307 0.016576352 -0.058836132
000030 bf 6f 30 3e a4 67 9e bd 94 9e 66 be d4 2d 29 3e
       0.17230128 -0.07734612 -0.2252143 0.16521388
000040 d3 58 fc 3d cb fb 09 3e 9d 39 e6 bd e0 a6 5e be
       0.123216294 0.13474958 -0.112414576 -0.21743345
000050 d9 ac 01 3e 06 a5 08 3e 6c 4c 72 be 12 8c 0e be
       0.12663592 0.13344201 -0.23661965 -0.1392062
000060 91 36 b7 3c 77 ea 10 3e 2a 3f 3f bd 1c 25 9f 3d
       0.022364886 0.14151941 -0.046691097 0.0777075
000070 59 3b 3e be d2 ee e8 bd 66 bf c6 bd ba dc 0b 3d
       -0.18577327 -0.11373676 -0.09704475 0.034146048
000080 c2 25 6b bd 40 e8 23 be 92 ad 1d 3e 92 aa 3a be
       -0.057409056 -0.16006565 0.15398243 -0.1822913
000090 2d 51 3a bd ea 7c 44 be c8 d5 28 be 78 86 48 3e
       -0.04548757 -0.19188276 -0.16487801 0.19582546
0000a0 84 fd 04 3d 8d 2d 36 3d 31 c7 05 3d 64 c3 b2 bd
       0.032468334 0.044477034 0.032660667 -0.08728674
0000b0 7f 2e 05 3d a8 d7 15 be 40 05 4a 3a 08 2e 53 3e
       0.032515045 -0.14633048 0.0007706471 0.20623028
0000c0 65 65 4b bd 41 72 f8 bc b4 92 ae bd a4 0a 5f be
       -0.049657244 -0.030327918 -0.08524075 -0.21781403
0000d0 bc fb 3a be a3 4a ac bd 1a 23 be 3d cc 5e 30 be
       -0.18260092 -0.08412673 0.09284039 -0.17223662
0000e0 8f ef 1f 3e 69 32 1c be 7f ad 2a 3e da 4e 2a 3e
       0.15618728 -0.15253605 0.16667746 0.16631642
0000f0 99 cb c1 bd 5c 44 2a bd 25 81 31 3e 53 42 bf bd
       -0.09462661 -0.0415691 0.17334421 -0.09338822
000100 41 92 06 3e 41 7d c4 3d 0a 78 51 be 0b 67 ec bd
       0.13141729 0.09594203 -0.20455948 -0.115430914
000110 e6 07 21 3d b3 a9 2d 3e 54 b9 0d be 96 0c b4 bd
       0.039314173 0.16959266 -0.13840228 -0.08791463
000120 2e ad 6b bd 87 33 1b be fd 03 87 3d b3 be f1 3d
       -0.057538204 -0.15156375 0.065925576 0.11803951
000130 14 89 fa bc 73 86 c1 3d 56 b0 56 3e 4f 26 20 3e
       -0.030582942 0.09449472 0.20965704 0.15639614
000140 de 5d ea 3d d7 11 c8 bd cb e8 07 be 4c af 71 be
       0.11443685 -0.09769028 -0.13272397 -0.23602027
000150 67 a6 48 3e bb 47 16 be 85 93 db bc 68 e1 62 3c
       0.19594727 -0.146758 -0.026803741 0.013847686
000160 83 23 b9 3d 1c cc cc 3b ce 30 a5 bd 42 ff 2b 3e
       0.090399764 0.0062499177 -0.080659494 0.16796592
000170 b1 0f 29 be d8 5f 01 bd 69 b7 1b be 6d ed 3d be
       -0.16509892 -0.031585544 -0.15206684 -0.18547602
000180 05 76 24 be 79 cc 4e bb 7f ed 10 be d6 2c 83 3c
       -0.16060646 -0.003155498 -0.14153098 0.01601259
000190 10 b9 67 bd 3c be 84 3c a1 59 ba bd af 74 1a be
       -0.056572974 0.016203992 -0.090991266 -0.15083574
0001a0 3b 2c 4e 3c 83 b3 db bd cb ef 17 be 1b 59 7a bd
       0.012583788 -0.107275985 -0.14837568 -0.061120134
0001b0 87 27 6f be 4f 82 3b be 9f 0c b6 bd a4 c6 c1 3d
       -0.23354922 -0.18311428 -0.08889126 0.09461716
0001c0 1e 35 22 be 4c d1 fe bd e7 27 61 be 47 1a 62 3e
       -0.15840575 -0.12442264 -0.21987878 0.22080337
0001d0 cf 83 f2 3d 24 a4 51 be ac 14 89 3a dc cd 69 be
       0.11841547 -0.20472771 0.0010458431 -0.22832435
0001e0 a0 79 1d 3d 14 d0 0e be 67 86 3b 3d a0 fa f9 3d
       0.03844607 -0.13946563 0.045782473 0.12206006
0001f0 b5 9a 2d be 81 d4 5a bd cc 08 13 be 04 b2 f1 bd
       -0.16953547 -0.053425316 -0.14358824 -0.11801532

trend_stream.mlp.3.weight f4 [128, 128]
000000 1e 06 8b bc 53 28 63 bc 5c 8f 3f 23 3e ff e0 3c
       -0.01697069 -0.0138645945 1.0384488e-17 0.027465459
000010 c6 18 d9 bc 39 97 3a bd ff 24 b9 ba bc 0a 15 bd
       -0.02650107 -0.045554373 -0.0014125406 -0.03638719
000020 6a 99 42 b9 52 45 9d 2e f6 4d 7d bb d5 be fb bc
       -0.00018558433 7.151847e-11 -0.0038651205 -0.030730644
000030 f1 49 ee bc 83 22 16 b9 3d 0c c5 b6 14 e4 7e bb
       -0.029087992 -0.00014317971 -5.8724822e-06 -0.003889327
000040 ad f8 de 3c b9 bf ab bc f6 c3 0f bb dd bc d0 bc
       0.027218187 -0.020965444 -0.002193687 -0.025480682
000050 8b ee bf bb 61 6b 40 3b 5d 5a 5c bb 33 13 f3 3b
       -0.005857294 0.0029360878 -0.0033623197 0.00741806
000060 90 43 07 3c 8f ef 7e bc 53 05 37 bd 63 9f 55 ba
       0.008255854 -0.015560045 -0.044682812 -0.00081490556
000070 6f 7f d7 bb 9b c0 1f bc c7 75 15 bb dd 2d 99 3c
       -0.0065764706 -0.009750511 -0.0022805796 0.018698627
000080 4c ee 0a bc 82 2d 03 bb 3b 10 66 bb d4 9f c6 3b
       -0.008479666 -0.0020016138 -0.003510489 0.0060615335
000090 16 e6 88 bb 10 b8 c0 bb 2b e8 17 b7 a9 b4 39 bc
       -0.004177819 -0.005881317 -9.054357e-06 -0.011334577
0000a0 4e 06 ad 3b 5d 3b 07 3d b6 d8 cd bb 7f 95 8a 39
       0.0052802926 0.033015598 -0.0062819375 0.00026432794
0000b0 d2 b1 4d bc 31 1d 7e bb 21 42 89 ba 69 ce a3 bc
       -0.012554603 -0.0038774724 -0.0010471978 -0.019995885
0000c0 45 be 06 bd 5e ee 4c bc 7d 9d 39 3c 8c 77 b9 b8
       -0.0328963 -0.012508003 0.011329052 -8.843755e-05
0000d0 85 99 15 bc d7 24 3f 3c 0a 57 3d 3c a8 c1 fc bb
       -0.00913084 0.011666498 0.011556396 -0.0077135153
0000e0 a3 0c f3 3c 65 5d 12 3c 66 a2 49 bc 37 38 72 bc
       0.029669112 0.0089334 -0.012306785 -0.0147839105
0000f0 66 1d 5a bc 95 b3 cd bb c3 df 99 bc 16 fa b5 ba
       -0.013312673 -0.0062775114 -0.018783456 -0.0013883736
000100 24 ce 84 bc 8c a2 3c bc a9 da 2f b9 56 19 76 bc
       -0.016211577 -0.011513364 -0.00016770758 -0.015020689
000110 f5 4d 5e bd cf 10 b5 3c 8a 30 0e bb 29 0c bf 3c
       -0.054273564 0.022102742 -0.0021696412 0.023321228
000120 16 9b fe bb 3d bf 12 ba b4 82 a0 bb d4 81 28 bd
       -0.0077699525 -0.0005597955 -0.0048983935 -0.04113944
000130 18 01 b3 bc f0 11 d9 3c f9 65 45 bc ff 47 d9 3a
       -0.021851107 0.026497811 -0.012048238 0.0016577243
000140 0c 91 15 bc 52 1f 1b 3c 80 97 ce bc 6f 3a f3 bb
       -0.00912882 0.009467917 -0.025218725 -0.0074227373
000150 d8 92 ac bc 3a f1 c5 bb 57 f0 69 bb 8d 39 9e bc
       -0.021066114 -0.0060407193 -0.0035696232 -0.019314552
000160 8f d6 9d bc 2b 58 f8 bc 4b a2 e4 bb d6 03 07 bc
       -0.019267349 -0.03031548 -0.0069773546 -0.008240661
000170 16 cf 15 bc fb 07 e5 3a 0d f8 64 bb 25 8c 11 bb
       -0.009143611 0.0017473692 -0.003493789 -0.0022208777
000180 51 c2 1a bc bf c0 be ba ae 4c b7 bc 49 6e 45 bb
       -0.009445743 -0.0014553292 -0.02237543 -0.003012555
000190 96 6d 85 3c c0 0c b1 bb e4 ec ab bc 90 80 8c b5
       0.016287606 -0.0054031312 -0.020986982 -1.046823e-06
0001a0 b4 b8 3d 3b d1 c2 6d b8 a4 f4 99 3b f8 76 08 bb
       0.0028949203 -5.668664e-05 0.004698353 -0.0020822864
0001b0 ec 22 a6 ba 3b ed 8f ba a1 54 dd bb 66 ff 41 3b
       -0.0012675202 -0.0010980734 -0.0067544733 0.0029601692
0001c0 16 9e 24 bd bb f3 ae bc 0e 1c 85 ba 2f 0b 0b 3d
       -0.040189825 -0.021356454 -0.0010155456 0.033946212
0001d0 5b 1c b9 bc 4a f7 bf bb 42 79 9c bb e5 eb 60 bc
       -0.022596529 -0.0058583366 -0.0047751972 -0.013728117
0001e0 c9 db ad 3c 0a 5a 2d 3a f2 d5 1e ba 94 f4 06 bd
       0.021222966 0.0006612843 -0.0006059102 -0.03294809
0001f0 7e 50 6d 38 8f 5e d3 bb 58 59 1b bc da 12 bc bb
       5.6580167e-05 -0.0064504812 -0.00948175 -0.005739552
000200 c3 3a 88 3b 00 7c 97 38 94 c4 af bc 5b 82 7f bc
       0.0041573956 7.223338e-05 -0.02145604 -0.015595044
000210 c8 06 95 3d 83 41 c9 bc 6d d1 3b bd bb a1 8c bc
       0.07276684 -0.024567371 -0.04585402 -0.017166963
000220 b3 da 02 3c ab 83 94 39 a8 f8 f9 3c 65 da 07 3c
       0.007986712 0.0002832686 0.030514076 0.008291815
000230 85 9e b3 bc 54 91 9b bd 3e 3c 6b bc 99 03 4b bd
       -0.021926174 -0.075960785 -0.014357625 -0.049563978
000240 5b 1d 1c bd 9b 34 1f bc 53 48 48 bc 39 58 25 bd
       -0.038113933 -0.009717132 -0.012224275 -0.04036734
000250 b3 bc 0f 3c af a8 49 3a 80 90 ad 3d 04 c3 b0 bd
       0.008773017 0.00076926773 0.08474827 -0.08630946
000260 a5 89 0a 3b 87 71 b0 bc 0c 25 af 3c dc cb ff bb
       0.0021139171 -0.021538509 0.02137997 -0.0078062844
000270 50 79 17 3b 7b 18 b9 bb d5 57 91 bb 8e 6c 63 bc
       0.002311308 -0.0056486703 -0.004435519 -0.013880862
000280 09 8b e0 bc 09 c0 27 3a 6d 0a 2a 3d f4 2a 9b 3b
       -0.027410047 0.000639916 0.04151385 0.004735345
000290 a3 e3 e8 ba 75 d7 4f bd d4 16 42 bc ed ac b0 bd
       -0.0017768036 -0.050742585 -0.011846263 -0.08626733
0002a0 85 8d 0f bd 4b 3d 1f bd 68 a0 ee bc d5 7a f0 bc
       -0.035047073 -0.038876813 -0.029129222 -0.029355446
0002b0 0c c8 9a 3b ea 39 8f bd 10 8b bc 3c be 6c ba bd
       0.0047235545 -0.06993468 0.023015529 -0.09102772
0002c0 b6 31 de ba 80 ee 03 3d e4 33 92 bb bf 05 d4 b4
       -0.0016952071 0.032209873 -0.0044617523 -3.9492258e-07
0002d0 66 d4 f0 bb 85 80 25 3d 93 ed 34 bc f0 72 9e ba
       -0.0073495386 0.04040577 -0.01104297 -0.0012088697
0002e0 94 db 49 bd a5 eb 0e bc 8b bb 99 bd a5 7b 3a bd
       -0.04928167 -0.008723174 -0.07506474 -0.045528073
0002f0 fc 28 d4 ba 89 17 07 3d 6b 71 cf bc 2c 6f 00 bd
       -0.0016186531 0.03298143 -0.025322637 -0.03135602
000300 4c c1 39 bc 7e 61 19 bd 50 0f e1 3c 8e e6 af 3d
       -0.0113375895 -0.03744649 0.027473122 0.08588897
000310 3b 00 0b bc ac 4d df bc b4 90 3b bd 66 ea 28 3d
       -0.008483942 -0.027258717 -0.045792297 0.041239165
000320 1a da ba bb 51 fa 91 bc 4a 3e 5c bd dc 9f 7e bc
       -0.0057022693 -0.017819555 -0.05377034 -0.015541043
000330 8d cf 69 bd fb 5e f7 b9 a7 5e d6 bd 09 2e 8f 3d
       -0.0570827 -0.00047182277 -0.10467272 0.069912024
000340 ff 5a 8d bd e8 60 5d bb 9a f9 dd bc 74 ab e1 3d
       -0.06902122 -0.0033779684 -0.027096558 0.1101903
000350 0d 93 13 bb 8b b8 cd 3c ef 40 1a 3c 3f 4a 53 bd
       -0.002251807 0.025112411 0.009414895 -0.05158448
000360 43 3d ca bb b0 59 4c 3b d7 8d f8 3c 00 f4 63 3d
       -0.0061718537 0.0031181388 0.030341072 0.05565262
000370 33 10 16 ae ef e1 1c 3b fa 3e 2d bd c2 78 0e b8
       -3.412044e-11 0.0023938378 -0.042296387 -3.3967903e-05
000380 ff cf 0d 3d 4e 79 4e bd 91 78 89 bd ba 72 b3 bb
       0.03462219 -0.050408654 -0.06712449 -0.005476323
000390 fa b8 42 3d 55 d2 91 3c 09 cb 8c bc fe ff 82 b9
       0.04753969 0.01780049 -0.017186658 -0.0002498626
0003a0 5f 07 db bc eb fc cc ba 4a 0a a6 bd 0c 66 93 ba
       -0.026736913 -0.001563934 -0.08107431 -0.0011245622
0003b0 be c4 e8 bc f8 b0 1b bd 7c 09 46 3d 66 08 3e 3c
       -0.028414126 -0.038010567 0.04834889 0.011598682
0003c0 42 ab 91 bd d3 80 23 bd 05 bc 5e b1 d5 67 6a bd
       -0.07112743 -0.03991778 -3.2412129e-09 -0.05722793
0003d0 89 0c dc bd 56 5b 92 bb fc fc 4b 3c 2a 8f 12 bd
       -0.107445784 -0.0044664545 0.012450453 -0.035781063
0003e0 77 ec b0 bb ce 9c 37 bb c9 ba 1c bc c4 5a 2a bd
       -0.0053992826 -0.0028017047 -0.009566017 -0.041590467
0003f0 d6 44 9b bc 79 ad 6c 3b c9 16 ab b8 10 6f bf 3c
       -0.018953722 0.003611414 -8.1581595e-05 0.023368388

trend_stream.mlp.3.bias f4 [128]
000000 32 d9 b8 3c ec 88 05 bd 3d f2 90 bd 29 39 b9 3d
       0.022564504 -0.032601282 -0.07077453 0.090441056
000010 ab 74 49 3c eb d6 05 bd 34 13 57 3d 77 e7 49 bd
       0.012295882 -0.032675665 0.052508548 -0.049293008
000020 c1 4f 81 3d 5d 7f 62 bd 9e 40 af 3c e5 ba da bc
       0.0631404 -0.055297244 0.021393117 -0.026700446
000030 cc e2 ea bc b7 1c c5 bc 59 78 d0 3d fb 34 ab 3b
       -0.028672598 -0.024061544 0.101792045 0.0052248216
000040 c7 c2 ae bc 33 41 b3 3c ec 31 f1 bc de 33 ff bc
       -0.021333111 0.021881675 -0.02944275 -0.031152662
000050 9b d3 98 bb c9 88 2d 3d 49 eb 56 3d cf 63 e4 b9
       -0.004663897 0.042366777 0.05247048 -0.00043561912
000060 1d d7 ab 3d 3b f4 a4 bd b0 0a db bb b1 32 44 3d
       0.08390639 -0.08054396 -0.0066846237 0.047899906
000070 c3 a3 50 3d 84 11 4d 39 d7 37 3c bd f8 e2 34 3d
       0.050937425 0.00019556849 -0.04595169 0.044161767
000080 4f a1 44 bd 64 a4 7a 3d 43 81 0e 3d 19 13 ad bc
       -0.0480054 0.06119193 0.034791242 -0.02112727
000090 d9 fa 0b bd 28 58 94 bd ed f5 8d bb 0c 9d 28 3d
       -0.034174774 -0.07243377 -0.004332295 0.041165397
0000a0 d7 0e 59 bc 73 34 70 bd f9 74 41 3d a7 c8 1d 3b
       -0.013248167 -0.05864377 0.047230694 0.0024075897
0000b0 5a 38 32 bd a8 5b 1e 3d 7c 17 30 bc ea 88 13 3d
       -0.043510772 0.03866163 -0.010747787 0.036019243
0000c0 2d 49 89 bd be 2f 6d 3d 6e 33 b1 bc d4 90 b7 bd
       -0.0670341 0.05790686 -0.021630969 -0.08963171
0000d0 40 65 69 3d 8d e8 88 3d c7 44 63 3b 48 af 8f b9
       0.056981325 0.066849805 0.0034678446 -0.0002740568
0000e0 fa 68 9c 3d fe cb 1e 3d b9 4a 1b 3c 68 ef b9 bd
       0.0763721 0.03876876 0.0094782645 -0.09078866
0000f0 e1 0b e8 3d fc 32 a8 3d ac c3 f7 bc c1 1f a1 3d
       0.11330391 0.082128495 -0.03024467 0.07867385
000100 d5 78 d6 3d 35 80 9c 3d f2 8d b8 3d 57 14 08 bc
       0.10472266 0.07641641 0.09011449 -0.008305631
000110 96 09 65 bc 43 69 1b 3c 31 9c c5 3d 2e 18 21 bd
       -0.013979336 0.009485546 0.09648932 -0.0393297
000120 66 ad 75 bd 7f c1 2b bd c4 ae ff 3c 0f b8 84 bd
       -0.05997982 -0.04193258 0.031211264 -0.06480419
000130 43 c5 28 bd f4 cd a3 3c 3d 96 c6 bd 5d f5 bc bd
       -0.04120375 0.019995667 -0.096966244 -0.09226487
000140 3b bb 97 3d be 6a b2 3d 84 93 3e 3d fd a8 8c 3d
       0.07408758 0.08711766 0.0465274 0.068681695
000150 fe 86 b7 3c be 4c d0 3d 2e d8 8c 3d 1d b7 a6 3d
       0.022403236 0.101708874 0.068771705 0.08140395
000160 a0 44 72 bd d9 ed 6d 3c b5 86 79 bd 31 86 9e 3c
       -0.059147477 0.014522039 -0.060919482 0.019351097
000170 0e b1 e0 3d 1c 42 0a 3d 00 8e 3d bd 43 bb d1 3c
       0.109712705 0.033754453 -0.046278 0.025601989
000180 54 8a 80 bd 98 9d 28 bd 4d a4 87 3d fb b3 22 3d
       -0.06276384 -0.041165918 0.06623135 0.039722424
000190 c9 d4 68 bd a4 bb 5e 3d 5b f2 f1 3c c7 2a 50 bd
       -0.056843553 0.054378167 0.02953451 -0.050822046
0001a0 7c f9 95 bb 04 54 a7 bc bc 50 95 bd 76 6e ff 3d
       -0.00457686 -0.020425804 -0.072907895 0.124722406
0001b0 60 14 0f bd 97 31 79 bd 1b a9 17 bb 2f 7b 47 bd
       -0.03493154 -0.06083831 -0.0023141566 -0.04870146
0001c0 3f 0b 7c bd 5a c5 a8 3d 60 a3 3e bd 4b d0 72 bd
       -0.061534163 0.08240767 -0.046542525 -0.059280675
0001d0 5a 9b 0c 3d 09 77 bc bb 7e 29 fa ba 78 3c c4 3c
       0.034327842 -0.005751495 -0.0019085852 0.023954615
0001e0 70 34 a6 3c e0 5e 66 bd 7d 81 e2 bb 84 d1 a5 3d
       0.020288676 -0.056242824 -0.006912409 0.080966026
0001f0 38 35 a7 3d 6f d8 f1 bc 1a b0 b8 3d cc a4 82 3d
       0.081644475 -0.029522149 0.09017964 0.06379089

residual_stream.conv_layers.0.0.weight f4 [128, 17, 3]
000000 0b 45 26 3c 19 21 df bc 8e 00 4b ba 19 78 c4 3b
       0.010148297 -0.027237462 -0.0007743918 0.005995762
000010 57 e8 75 bd 2c b3 a5 3b 17 51 9d bb 5c 85 7b bb
       -0.06003603 0.0050567593 -0.0048009264 -0.003837905
000020 c2 10 36 bb 14 c8 d4 bc 73 46 24 3b 55 cf ab 3b
       -0.0027780985 -0.025974311 0.0025066405 0.0052432218
000030 d4 12 19 be a1 80 36 3d 38 ed c6 bd 31 b0 cb bb
       -0.14948589 0.044556264 -0.09713215 -0.006216072
000040 f3 9a ba bb 96 0b b1 bb 5d 19 b4 bb 51 81 8b bb
       -0.005694741 -0.0054029925 -0.0054961876 -0.004257359
000050 b1 3e 69 bb ad ce 26 bd ab 2c 4a bd 4e db 24 bd
       -0.0035590346 -0.040724445 -0.049359005 -0.040248208
000060 f6 39 9a bb 2f b1 7b bc 66 d4 c2 bc 36 79 7b bd
       -0.0047066165 -0.015362068 -0.02378292 -0.061394893
000070 8d ea 8f bd df 45 3d bd 78 41 17 bd 2c 03 58 bc
       -0.07027159 -0.046209212 -0.03692767 -0.01318435
000080 32 8d aa 3d 1e ba aa bb c0 a9 67 bb d4 4a 57 bb
       0.08327712 -0.005210175 -0.0035348982 -0.0032850998
000090 d7 20 af bb f9 a1 88 bb e4 83 84 bb 1b a6 ca bb
       -0.005344491 -0.0041696993 -0.004044043 -0.006184352
0000a0 cb d3 bb bb 94 10 b0 bb 77 31 96 bd 06 db 12 bc
       -0.005732035 -0.00537307 -0.073336534 -0.008963352
0000b0 9e 69 b3 3d b2 38 14 bd a3 3f 45 bd e8 b2 0a bb
       0.08760379 -0.03618688 -0.04815639 -0.0021163765
0000c0 47 dd 54 3b 0e 4d 3d 3b e3 23 2c 3a a1 6f d2 3b
       0.0032480524 0.002888504 0.0006566627 0.0064219986
0000d0 c8 3e 3a 3a 80 a8 3e 3c 34 b6 a5 3c 6c d8 bc bb
       0.0007104692 0.011636853 0.020228483 -0.005763104
0000e0 8a 6d 38 3c 9b e7 36 3c 49 ee bf 3a 4f fc e2 3b
       0.011256585 0.0111636175 0.0014643158 0.00692705
0000f0 fd a9 ff 3b be f6 6d 3b 90 49 18 3c 56 62 94 3d
       0.0078022466 0.00363104 0.009294882 0.072453186
000100 2e 69 c4 3c 5d 11 50 bd a1 fc 4f 3b 93 fc 4e 3b
       0.023975935 -0.05079781 0.0031736272 0.0031583651
000110 38 18 4f 3b 29 3f 51 3b 05 29 57 3b ca 1e 5c 3b
       0.003160013 0.0031928516 0.0032830846 0.0033587688
000120 0e 4a 5a ba 06 0c 11 3c 68 cc 83 3c 1f e8 24 ba
       -0.0008327075 0.008852964 0.01608868 -0.0006290692
000130 48 12 85 3a 87 0b 39 3b 97 8d 8d 3c 4c 75 b5 3c
       0.0010152543 0.002823563 0.01727943 0.022150658
000140 18 a1 d2 3c 1d 6a 36 bb d5 1c 3e 3d 0a 09 87 3d
       0.025711581 -0.0027834245 0.046414215 0.06593521
000150 35 26 eb ba f3 8f b5 ba 32 7d 8e bb 9a 79 ee 3b
       -0.0017940464 -0.0013852104 -0.0043484205 0.0072776796
000160 45 da dc 3b c7 24 23 3c 5b 02 50 3b 9a bf 4e 3b
       0.006739887 0.009957499 0.0031739685 0.003154731
000170 6a 5f 4e 3b 27 01 51 bc ab 09 bc 3d 77 73 98 3d
       0.0031489977 -0.012756622 0.091815315 0.07443898
000180 cf 07 a8 ba 5d 49 03 3d d7 c8 3a 3d 71 af ac 3b
       -0.001281971 0.032052387 0.045601692 0.0052699377
000190 85 59 90 3b b6 fc 87 3b 96 3a 8a ba 8f 87 98 3b
       0.004405203 0.0041499985 -0.0010546024 0.0046548317
0001a0 2b f1 35 3b 80 b6 26 ba c3 a1 7c 3b 8a 83 53 3c
       0.0027762156 -0.0006359592 0.0038548566 0.012909779
0001b0 fe 43 1d 3c 12 eb d2 3b 59 1d 96 3c 2e 0a 37 3a
       0.00959873 0.006436714 0.01832454 0.0006982413
0001c0 3f ed 82 3c 77 86 67 3c cd 86 92 bd 98 96 24 3d
       0.015982268 0.01413118 -0.071546175 0.04018268
0001d0 8c c4 99 bd 28 73 5d 3b d9 d0 7e 3b 15 ae 69 3b
       -0.075081915 0.0033790562 0.0038881807 0.003565674
0001e0 4e b5 36 3b 2a c7 8f 3b cf 07 a0 3b 24 56 dd bb
       0.0027879062 0.004387756 0.0048837434 -0.0067546535
0001f0 fc 6a 85 3c 17 8c 87 3c c6 72 77 bb cc 17 73 3b
       0.016286366 0.016546292 -0.003775762 0.0037093041
000200 e6 9f ab 3b be b5 d1 bc 18 fb 04 3d fc 95 5b 3d
       0.0052375672 -0.025599357 0.032466024 0.053609833
000210 2f eb 96 ba 3c 27 6f 3d 27 9e ba 3d fe e0 d1 bb
       -0.0011514182 0.058387026 0.091121964 -0.006404995
000220 a7 42 50 bb bd ac 83 bb 0d 2e 45 3c 8d a1 22 3c
       -0.003177801 -0.0040183947 0.012034905 0.009926212
000230 c4 a3 2b 3c aa 2b 5e 3b 8e 51 80 3b aa a8 6b 3b
       0.0104760565 0.0033900538 0.003915972 0.0035958686
000240 6c 97 38 bc 5d 4e 61 3d 28 bd b4 3d 06 5d 83 3c
       -0.011266571 0.055006374 0.08825141 0.016035568
000250 ea 92 f3 3c 4e 20 34 3d 5d 06 84 3b 8d 5c cf 3b
       0.02973314 0.04397612 0.004029079 0.0063281716
000260 3a 0c 84 3b 8f 98 a8 bb 7d 45 82 3c 67 87 ac ba
       0.004029778 -0.0051451395 0.015902275 -0.0013162912
000270 e1 19 bf 3b 83 97 41 3c 82 b2 9a ba ad 58 a1 3b
       0.0058319424 0.011815908 -0.0011802467 0.004923901
000280 fe ac ef 3a fd 39 4f 3b d2 ec 1d 3c 91 f2 20 3c
       0.0018285809 0.0031620257 0.009638982 0.009823457
000290 6d 00 b7 3b 71 3b 15 3c 40 70 a9 3c c6 26 4e 3d
       0.0055847676 0.00910841 0.020683408 0.050329946
0002a0 fd 93 2a 3b b6 6f 33 3b 3e c1 3c 3b 08 9a 08 3b
       0.002602815 0.0027379817 0.0028801705 0.0020843763
0002b0 e0 cf 3c 3b fd ea 47 3b 55 91 26 bb 1c 6e 7a 3c
       0.0028810427 0.0030505054 -0.0025416214 0.015285041
0002c0 fc 12 4f 3c c7 3e 95 bb 90 06 76 ba 8b a9 cb 3b
       0.012638804 -0.004554603 -0.0009385133 0.0062152795
0002d0 ab 30 50 3c 2e 83 23 3d fb b8 02 3d ea d4 bf 3a
       0.012706916 0.039920025 0.031914692 0.0014635597
0002e0 e4 dd 1e 3d 9b 14 67 3d 6f a7 55 bb 86 eb 5b bb
       0.03878583 0.056416135 -0.003260102 -0.003355713
0002f0 dd aa c7 ba 8c 24 02 3c 54 aa 08 3c 61 18 e0 3b
       -0.0015233416 0.007943284 0.008341391 0.0068388437
000300 49 74 2b 3b aa a4 33 3b b1 d4 3b 3b 5b ef a3 3c
       0.002616184 0.002741138 0.002866071 0.020011595
000310 ea 5e 2b 3d a6 d8 90 3d 0c 11 87 3c d9 b3 e7 3c
       0.041838564 0.070725724 0.01648762 0.028284
000320 54 e4 26 3d fd 96 7a 3b 48 fc 06 3b 9c 8b d8 3b
       0.040745094 0.0038236969 0.0020597149 0.0066084396
000330 67 b1 b1 3b 44 39 05 3c 7a ea d4 bb cb 29 82 3c
       0.0054227593 0.008131329 -0.0064976783 0.015889069
000340 10 c7 04 bc 48 5b 41 bc 09 c1 fd b9 4e 77 6b 3b
       -0.008104101 -0.011801548 -0.00048399743 0.0035929265
000350 43 11 81 bb 5b a2 79 3c ae d0 3f bc 2f 3f ff 39
       -0.0039388253 0.0152364625 -0.011707468 0.00048684466
000360 ea b8 8d 3b a6 06 e3 3b 66 8c 08 3e 2d 56 65 39
       0.004325022 0.006928283 0.13334808 0.00021871245
000370 f5 b8 f9 b9 e1 5e c5 38 10 15 b0 3a c6 40 0a 39
       -0.00047630785 9.4113646e-05 0.0013434011 0.00013184836
000380 ad d7 da 39 ec b2 cb 3c 73 8d cc 3b cb 07 ac 39
       0.0004174089 0.02486559 0.006242448 0.00032812203
000390 bb e0 5d 3c d9 e5 3f 3c 79 ce 1e 3c 01 e2 ef 3c
       0.013542349 0.011712515 0.009692782 0.029282572
0003a0 f2 fd 4e bc 8c f0 a7 bc cd ac 8c 3c db e5 89 bb
       -0.0126337875 -0.020500444 0.017172242 -0.004208309
0003b0 5d e2 3c 3b f8 45 05 3c 3c 97 b2 37 fa 37 ad ba
       0.0028821446 0.008134358 2.1289678e-05 -0.0013215535
0003c0 ca 12 cb bb 28 63 1d ba 3b 75 a9 3a 08 cd b1 39
       -0.006197308 -0.000600385 0.0012928614 0.0003391283
0003d0 de c2 fb b9 71 20 50 38 c8 ba 86 3c 6a 4b 75 bc
       -0.00048019638 4.9621278e-05 0.016446486 -0.014971593
0003e0 36 da a3 3c 85 b1 9e 3b 0d 1f 0c 3c 8a f7 92 3b
       0.020001512 0.0048429393 0.008552325 0.0044850754
0003f0 fd ef 4f 3b 0c 6c 84 3a 8a e5 c7 3a 0e e7 cf 3a
       0.0031728738 0.0010103001 0.0015250903 0.0015861706

residual_stream.conv_layers.0.0.bias f4 [128]
000000 b5 ea a2 bc cf b8 67 3d 61 eb a1 3d 9a 41 8a 3d
       -0.019887308 0.05657273 0.07906223 0.06750794
000010 87 7a 13 bd e9 cd 28 bd 7f 73 40 bd d4 47 c3 3c
       -0.036005523 -0.041211996 -0.046985146 0.023837961
000020 f9 90 5b bc 2e 84 a7 3d 07 9c a6 3d 3e f7 6f bd
       -0.013401263 0.08179508 0.081352286 -0.058585398
000030 a7 f7 c2 bb 98 8f a6 3b 57 dc a8 bc 9e 51 db bb
       -0.0059499326 0.0050830357 -0.020612879 -0.006693079
000040 e9 6e a0 3d 10 f6 2f 3d 5d 46 10 bd 12 95 03 bd
       0.078336544 0.042959273 -0.035223354 -0.032124586
000050 a9 9f 26 bd bf dc ce 3c 58 f9 16 3d 83 ad 04 bd
       -0.040679608 0.025251744 0.036858886 -0.032392036
000060 41 af cf 3c 42 d8 1f bc 17 21 c4 3d 0c 85 68 bc
       0.025352122 -0.00975615 0.09576624 -0.014191877
000070 d9 69 47 bc 06 df 94 bb 26 cf be 3c 02 73 94 3d
       -0.012171232 -0.004543188 0.023292135 0.072484985
000080 03 77 1a 3d 11 f6 0f 3d 5b 15 bb bc 12 11 a6 bc
       0.037711155 0.035146777 -0.022837332 -0.020271812
000090 f2 a2 21 bd 14 91 4b bc ea 0c a1 bc 66 43 00 3c
       -0.039462037 -0.012424726 -0.019659478 0.007828569
0000a0 67 53 90 bc c5 71 0d 3d 7a 5e 0c bd d3 90 68 bc
       -0.017617894 0.034532327 -0.034269787 -0.014194685
0000b0 8b c2 7b bc 62 1b ab 3c c3 74 80 bc d3 95 e8 3d
       -0.015366207 0.02088708 -0.015680676 0.11356702
0000c0 f3 d5 96 bc c9 43 25 bd 3d f9 59 bc d6 cc 1a bc
       -0.018412566 -0.040347848 -0.013304052 -0.009448251
0000d0 25 1e 02 bd 1c 78 28 bd e0 e4 1c bd 05 f5 ad 3b
       -0.03176703 -0.04113017 -0.03830421 0.0053087496
0000e0 7e 84 1b bd b9 f7 80 3d 77 0a 90 bc 51 9c 69 3d
       -0.03796815 0.06297249 -0.017583115 0.05703384
0000f0 3b b0 db 3d 52 f3 63 3d 37 32 ef bc 98 1e 24 bc
       0.10726973 0.05565197 -0.029198749 -0.01001706
000100 d1 1f 88 bc 81 e3 9f bc 80 27 b3 bc 86 d0 86 bc
       -0.016616734 -0.019517662 -0.021869421 -0.016456854
000110 3e 27 38 bd 64 ba 10 bd a0 ad 34 bc 00 ee 67 bc
       -0.0449593 -0.035334006 -0.011027724 -0.014155865
000120 1b e0 32 bb 26 af c5 3c 0c ef d4 bc d5 44 97 3d
       -0.0027294222 0.024131369 -0.025992893 0.073861755
000130 55 7a 19 bd c7 95 e3 bc 78 bb 90 3c cd e3 98 3d
       -0.03747018 -0.02778138 0.017667517 0.074653246
000140 16 f9 71 bc 7b f9 89 bc 7d 7b ba bc b8 53 98 3d
       -0.014768859 -0.016842594 -0.022763962 0.07437843
000150 91 fa 24 bd c3 aa 06 bd 01 50 48 bc 0e 7b 24 bd
       -0.04027802 -0.032877695 -0.012226106 -0.040156417
000160 6b 89 17 bd c1 43 d9 3d 17 3a 2c bd 03 fb 5f 3c
       -0.036996286 0.10608626 -0.042047586 0.013670686
000170 f2 da 59 bd e9 ca e4 bc 9f 01 0e bd b5 1a 67 3c
       -0.05318732 -0.027928786 -0.034669515 0.014105489
000180 6d 59 72 3d d5 a0 0d bd f7 77 db bc b7 67 ef bc
       0.059167314 -0.03457721 -0.026790602 -0.02922426
000190 c7 35 78 3d 17 9a cc 3d c2 0c 2a bc b2 94 b1 bc
       0.06059816 0.09990328 -0.010379018 -0.021677349
0001a0 c0 9c 75 3d d9 d6 1b bd 1b ef 01 bd 52 97 2e bc
       0.05996394 -0.03804669 -0.03172217 -0.010656195
0001b0 50 39 32 bd 1f f3 7e 3d 16 1f d1 3d 48 d4 1b bd
       -0.04351169 0.062243577 0.10211007 -0.038044244
0001c0 3d d4 6a bc e3 c3 94 bc 6a 92 c9 bc a2 7a bf bb
       -0.014332828 -0.018159812 -0.024605948 -0.0058434764
0001d0 19 85 17 bd 29 a6 0d bc 75 56 0d bd 6b c1 a9 3d
       -0.036992166 -0.008645573 -0.03450628 0.08288845
0001e0 fc 8c b6 bc 57 ad 5f bc 85 db 1a bd b9 d6 7b 3d
       -0.022284023 -0.013652167 -0.037807006 0.061484072
0001f0 0e b7 6a bd 44 3f 79 3d 00 9b c7 bc 79 83 f1 bc
       -0.05730348 0.06085135 -0.024365902 -0.029481636

residual_stream.conv_layers.1.0.weight f4 [128, 128, 3]
000000 af 55 e9 2f 88 38 04 ba 0c 33 aa b8 0b be 66 3b
       4.2443335e-10 -0.0005043824 -8.11574e-05 0.003520849
000010 ee 51 a0 bc fa 12 1b bd 41 79 8f 3c c5 c4 ab bb
       -0.019570317 -0.037859894 0.017513873 -0.0052419626
000020 4b dc 4d 3c c6 60 09 bd 1e 20 40 3c ac f4 06 bd
       0.012564729 -0.033539556 0.011726407 -0.03294818
000030 5b e7 8a af 8b 20 18 ac 35 9e 9a 28 8b 36 51 3a
       -2.5266442e-10 -2.1618564e-12 1.7166046e-14 0.0007980845
000040 18 5f 04 38 2e bf df 32 55 78 5b 38 09 77 20 ba
       3.1559815e-05 2.6047555e-08 5.2325737e-05 -0.0006121253
000050 06 c9 28 b8 4d 18 8e 3c 0b 79 16 bc 02 09 c5 3a
       -4.024154e-05 0.017345572 -0.009184132 0.0015032592
000060 77 cc b7 28 7b 92 fe ad f6 90 a3 26 76 c5 1f bd
       2.0405754e-14 -2.8941507e-11 1.1349689e-15 -0.039006673
000070 be c0 6b bb 0b 10 c8 bc b6 e3 1a bd 7d 4c 46 bc
       -0.0035973038 -0.024421712 -0.03781482 -0.012103197
000080 52 2d af bc a2 2e 2d 3a 91 2a 7c 38 0d fb e4 b7
       -0.021383915 0.0006606375 6.0121125e-05 -2.7296623e-05
000090 56 5d 8a bc d4 5d bf ba f2 14 f3 bb 15 63 27 3c
       -0.01689021 -0.0014600107 -0.0074182684 0.010216494
0000a0 35 be 86 bc 3c de fc ba a1 1d 09 ac ed 87 a9 b0
       -0.01644812 -0.0019292305 -1.9485318e-12 -1.2335001e-09
0000b0 0d a3 5f ae 21 b9 f9 9c 18 d3 bb 21 2f 07 a9 a3
       -5.0849148e-11 -1.6525293e-21 1.2727489e-18 -1.8326059e-17
0000c0 fd b3 da bc bc 32 12 bd 0d a3 0d bd 55 60 56 3c
       -0.026697153 -0.035692915 -0.034579325 0.013084491
0000d0 bb 37 bb bc 64 5d 77 bc e0 28 ad b6 93 ea 96 b4
       -0.022853723 -0.01509795 -5.1605602e-06 -2.8110352e-07
0000e0 73 6f 74 b4 64 b2 8e ba 80 67 68 34 94 7b b0 b5
       -2.2764816e-07 -0.0010886905 2.1644337e-07 -1.3148988e-06
0000f0 c3 44 d6 b9 51 35 83 35 9c 68 76 b2 03 38 e2 bc
       -0.00040868492 9.775778e-07 -1.434287e-08 -0.0276146
000100 9f cd 4b bb f0 03 bb bb c0 29 66 bc 2d 8c 9d bb
       -0.0031097902 -0.0057072565 -0.01404804 -0.00480797
000110 fa b5 14 bc bf 76 a2 b2 02 20 7c ba 85 26 7f b8
       -0.00907659 -1.8913282e-08 -0.00096178066 -6.083261e-05
000120 57 22 ea 3b 1c 6a 21 38 3d 56 1d bc 11 9e 9e 3c
       0.007145207 3.8484213e-05 -0.00960308 0.019362481
000130 42 3f 6b bb 39 7d 45 bb fc 96 e9 bc 55 0b 42 bc
       -0.003589586 -0.0030134453 -0.028514378 -0.011843522
000140 8c fa 36 bd 40 03 0b ba 82 f5 a1 32 8d c6 c2 ac
       -0.044672534 -0.00053029135 1.885451e-08 -5.535855e-12
000150 8f 87 9c 3c bd b0 9e bb 9c 94 af bb 0b 27 d1 bb
       0.019107608 -0.004842846 -0.005358292 -0.006382828
000160 f2 51 87 3b 69 ac 83 ba dc 10 6e 3c 6b 5c ee bb
       0.0041296417 -0.0010045889 0.014530387 -0.0072742007
000170 55 d1 2d 3b 00 69 cf bc 78 c9 ea bc d5 53 18 bc
       0.0026522477 -0.025318623 -0.02866052 -0.009297331
000180 07 ca 86 bc 75 7a 0f 3c 49 d5 08 3c 62 c3 f3 3b
       -0.016453756 0.008757223 0.008351632 0.007439063
000190 2d 18 e5 3b 3f 95 77 ba 00 b1 81 bb e9 ba b9 28
       0.0069914074 -0.00094445416 -0.0039578676 2.0620185e-14
0001a0 f1 35 b0 21 81 c7 23 bb 52 cd 55 b7 dd a3 12 31
       1.1940502e-18 -0.002499074 -1.2743594e-05 2.1338942e-09
0001b0 40 fa 8b 34 a3 df e8 b9 ac 2b a2 b8 77 82 bb 39
       2.6072848e-07 -0.0004441711 -7.7328965e-05 0.00035764623
0001c0 a3 e1 14 32 09 ee fa 2f 85 30 30 37 82 cf 84 ba
       8.666038e-09 4.564387e-10 1.0501714e-05 -0.0010132643
0001d0 ce 08 23 b8 6f 39 a4 39 3a cc 99 bc 94 f4 c0 3b
       -3.887043e-05 0.0003132331 -0.01877414 0.005888531
0001e0 07 53 0f 37 6f 29 04 b9 86 6d 69 b8 04 1c c2 3c
       8.5427955e-06 -0.00012603936 -5.565353e-05 0.023695
0001f0 5c 9c 73 bc 06 ea bd bc f7 f5 e0 39 8f 3b 9c a3
       -0.014868822 -0.02318288 0.00042907867 -1.6938778e-17
000200 3b 11 ef 21 e2 2e 10 bc 7b df 11 3c 0e da ff bb
       1.6199831e-18 -0.00880024 0.00890338 -0.0078079766
000210 37 db 98 39 4d 0c 94 3a 48 33 eb 3a 89 c6 53 3c
       0.00029155027 0.001129517 0.001794436 0.012925752
000220 c4 f3 ac bc 47 2d de 3b 48 70 57 a5 79 a2 58 ba
       -0.02111233 0.0067803 -1.868632e-16 -0.00082639564
000230 ba 61 e4 b8 cc 4d 56 3c 78 2e b1 bc 7b 47 75 bb
       -0.0001089009 0.013080072 -0.021628603 -0.003742664
000240 8d 0d 15 39 54 78 d0 b9 5a 4b 10 38 f8 07 77 ba
       0.00014214795 -0.00039762503 3.4402452e-05 -0.00094234897
000250 f1 a0 34 31 80 38 96 aa 19 b8 0a bb 99 90 e0 bb
       2.6284932e-09 -2.6684557e-13 -0.002116686 -0.006853175
000260 51 26 18 bc 4e 79 45 3c b5 d4 2c bc 79 fb e8 bb
       -0.009286479 0.012052847 -0.01054876 -0.007110056
000270 ce 10 6a ba 48 4a 16 2f 16 d2 0a 1f 2f 5e 03 3a
       -0.00089288957 1.366881e-10 2.9396416e-20 0.0005011288
000280 13 7e 42 b6 31 83 80 b5 f6 fc 8e b7 58 ff 0c ba
       -2.8981638e-06 -9.574925e-07 -1.7045513e-05 -0.00053786254
000290 11 56 b4 b8 f0 20 17 bc f0 b9 54 3b 1e 0a 3a bc
       -8.5991e-05 -0.0092241615 0.003245946 -0.011354951
0002a0 d3 35 95 b2 d0 6e 15 ba 7d 11 fc b8 ef 19 88 bc
       -1.737036e-08 -0.0005700411 -0.00012019554 -0.016613929
0002b0 38 4c 80 bc de 42 da bb 5b 96 78 ad 1a 74 ad b9
       -0.015661344 -0.006660803 -1.41305535e-11 -0.00033083634
0002c0 3a d0 8a b8 78 60 be bb ca 8a d1 bc 60 c5 0d 3c
       -6.619138e-05 -0.00580984 -0.025578875 0.008653015
0002d0 6c 8a d4 3c 2d c0 aa bc 0a 99 dd bc 83 50 bb bc
       0.025944911 -0.02084359 -0.027050514 -0.02286554
0002e0 5d 6e 32 bb 0b cb 46 3c 11 57 de b9 a3 f2 b9 b2
       -0.0027226426 0.01213337 -0.0004240801 -2.1647173e-08
0002f0 52 b5 8b b4 9d 30 38 38 9e 00 fe b9 dc a9 76 38
       -2.6022695e-07 4.3914293e-05 -0.00048447115 5.8809164e-05
000300 8c 80 7c 35 4e 4b 38 ba 92 6b 9a b8 f7 a8 15 95
       9.4064376e-07 -0.0007030264 -7.363329e-05 -3.02236e-26
000310 59 f7 89 22 5e 95 48 01 32 1c 9c a0 08 cf 85 ba
       3.7395814e-18 3.6841364e-38 -2.6446086e-19 -0.0010208795
000320 aa c2 43 b8 1d 90 23 ae 35 61 0c ba e4 e9 d4 b8
       -4.6672918e-05 -3.7189907e-11 -0.0005355061 -0.00010152513
000330 0a a3 44 ba 36 fc 3e 34 f3 6a 94 b0 8d d9 23 b3
       -0.00075011014 1.7786883e-07 -1.0798814e-09 -3.8149256e-08
000340 60 6f e9 b1 12 c3 93 ae 36 ef 2d 33 bd 78 7a ba
       -6.7938544e-09 -6.7194375e-11 4.0497262e-08 -0.00095547346
000350 5f fa 96 b8 ff f2 4e 36 e8 47 39 b9 c9 9a 4f b8
       -7.1991926e-05 3.0837834e-06 -0.00017669762 -4.94968e-05
000360 ce 46 f7 0d ba 01 80 01 65 dc 1e 00 ae 2a 1a bc
       1.5239596e-30 4.702225e-38 2.834128e-39 -0.00940959
000370 87 bd 4c 3b a6 58 af bc 71 b4 c1 b9 b1 52 1a 3a
       0.0031240897 -0.021404576 -0.00036946268 0.0005886956
000380 06 6a eb 37 80 de ed bb f1 c6 90 bc f9 11 07 bd
       2.8063554e-05 -0.00725919 -0.017672988 -0.032976124
000390 64 2c 46 ba e2 31 e7 af b2 ae 9c b1 41 2b cc b9
       -0.00075597153 -4.20541e-10 -4.560058e-09 -0.0003894214
0003a0 5a 87 b0 b5 4c 92 ea b4 c0 f7 9b bb 5c 46 73 bc
       -1.3152414e-06 -4.3692341e-07 -0.0047597587 -0.014848318
0003b0 c7 fc 97 bc b2 ab a6 bc 7c 14 31 3c 27 05 f1 3b
       -0.01855315 -0.020345543 0.0108081065 0.0073553505
0003c0 84 ce 5f bb 87 eb f7 bb 7d 96 a0 bb 56 ad 86 b7
       -0.0034150193 -0.007565919 -0.004900752 -1.605476e-05
0003d0 e6 6a 0e ba 33 a6 5c b8 40 24 4d 3b de c3 25 3c
       -0.0005432799 -5.2606872e-05 0.0031302124 0.010117499
0003e0 18 78 a5 ba 90 52 4c 3c f0 6d 88 3c 0c f9 41 bb
       -0.0012624292 0.012470856 0.016653985 -0.0029597906
0003f0 12 b6 35 36 e3 a8 bd 38 ce 68 b3 b8 ed f1 0b ba
       2.707708e-06 9.04368e-05 -8.5549065e-05 -0.0005338479

residual_stream.conv_layers.1.0.bias f4 [128]
000000 56 c4 51 bd 47 c5 51 bd 58 93 23 3d 37 3a b1 3c
       -0.05121263 -0.05121353 0.03993544 0.021634204
000010 ec cd 1d 3d fd ba f7 3b a2 0a b1 bb 9f 5c d8 a5
       0.03852646 0.0075601325 -0.005402879 -3.753279e-16
000020 e8 f2 f7 3c ed 83 10 3c e6 ba d3 b6 2b c0 7f bc
       0.030267194 0.008820516 -6.310048e-06 -0.015609781
000030 24 c6 b0 bc d1 3f ba 3c 76 aa 06 3d 8e 71 70 3d
       -0.021578856 0.022735508 0.032877408 0.058702044
000040 d2 b0 d4 bc 64 63 0e bd 02 c4 4a 3c 40 45 05 3d
       -0.02596322 -0.034762755 0.0123758335 0.032536745
000050 bd c0 d9 3a 30 37 88 ba 20 2c c5 3c 04 8c 39 3d
       0.0016613227 -0.0010392424 0.024068892 0.045299545
000060 1c 1f 00 bc 4d 7b aa 3a 0d 5e 6e 3c 8b ff 04 ab
       -0.007819917 0.0013006717 0.014548791 -4.725046e-13
000070 31 c1 d0 bc ec 06 ec ba f5 1e da bc ef 9a ab 3c
       -0.025482746 -0.0018007434 -0.02662609 0.020947902
000080 be c0 6a 3b 37 63 5b bc ff fa 44 3b d7 67 99 bc
       0.003582045 -0.013390354 0.0030056832 -0.018726273
000090 c7 3c 66 b6 08 8b 1f 3d c2 b7 41 3d 6e fe 90 bc
       -3.4308048e-06 0.03895095 0.047294386 -0.017699447
0000a0 97 73 90 3c a4 34 e2 ae f6 28 b0 bc 3c 25 92 bc
       0.017633243 -1.0286641e-10 -0.021503907 -0.01784002
0000b0 39 15 85 3d 45 3b ef bb f5 fe 41 3d f2 84 f5 bb
       0.064981885 -0.0073007667 0.047362287 -0.007492655
0000c0 bc 02 b9 b8 77 8c 40 3c 2d 5f 69 3d d1 15 f1 ba
       -8.821997e-05 0.011752239 0.056975532 -0.0018393343
0000d0 ee 3a 0e 3d 9f ad b1 3c 08 0e 9c 3c cf e2 bb bc
       0.03472417 0.021689234 0.01904966 -0.0229353
0000e0 1a 27 97 3d 9d 88 09 bd db 56 80 b8 19 31 4c 3d
       0.07380505 -0.03357755 -6.119694e-05 0.04985151
0000f0 5e 53 ee bb 47 30 8d 3b 32 58 e9 3c fb de 25 a1
       -0.0072731217 0.0043087336 0.028484438 -5.6199287e-19
000100 33 4a c2 b1 e9 31 12 3b 66 7c 63 bd e8 7c f8 bb
       -5.6545786e-09 0.002230758 -0.055538557 -0.0075832494
000110 0a 2b a4 bc e8 ab 25 3d a1 49 b0 3a de e8 1b b3
       -0.020040054 0.040447146 0.0013449677 -3.630054e-08
000120 65 ff 32 3d 2c 0a db 3c af 81 a7 3c ed 99 1e 3b
       0.043700594 0.026738249 0.02044758 0.0024200634
000130 d6 4a 0f bd dd 25 82 3d b9 3d 06 3d 39 60 93 bc
       -0.03498348 0.06354878 0.032773707 -0.017990218
000140 68 ca 9f bb f9 33 a5 3c 7c 2b 20 3d 66 6e 8f 3c
       -0.0048764236 0.020166384 0.03910397 0.017508697
000150 25 23 02 bd a7 09 6d b2 ea 06 b1 bc 1e 6f 6e 3d
       -0.031771798 -1.379741e-08 -0.021609742 0.05821144
000160 49 f1 47 bd aa ac 3a 3d c5 71 56 bb bc e6 1e 3d
       -0.04881409 0.04557482 -0.003272162 0.038794264
000170 9f ef 3a bd 58 e9 03 ba 02 b8 17 b5 5d 76 02 3d
       -0.045638677 -0.00050320243 -5.651965e-07 0.03185116
000180 32 3c bc ba 2a ea d3 bb f5 4d ba ba 7b 84 72 3c
       -0.0014361201 -0.0064671235 -0.0014213907 0.014802094
000190 2e 7a 19 bb df dc ef 3c b6 28 97 bc 8d 1b 88 3d
       -0.0023418772 0.029280124 -0.01845203 0.0664588
0001a0 c4 44 b0 3b 09 c0 2c bc 23 2f 38 bd 0d a4 f7 3c
       0.0053792913 -0.010543832 -0.044966828 0.030229593
0001b0 93 a4 09 bb d0 97 9c 3d 40 cb 41 3c e1 20 e5 bc
       -0.0021002635 0.076461434 0.011828244 -0.02796978
0001c0 68 e8 3c 3c c3 9c 0c bd a7 9d 90 3d e7 72 cf bc
       0.011530019 -0.034329187 0.0706132 -0.025323344
0001d0 ac f9 31 3c 4e 32 45 bc 94 89 5e 3c c2 e8 45 bd
       0.010862749 -0.012035919 0.013582606 -0.04831768
0001e0 36 d8 9d ba f1 a2 93 3c 75 92 f2 3b ae 69 c0 b6
       -0.0012042585 0.018022032 0.007402713 -5.7343486e-06
0001f0 5d 87 76 3c c0 b8 09 bd 2b d5 68 bc 54 3d 08 3d
       0.015046922 -0.033623457 -0.014210979 0.033261612
